Initializing Training Process..
Batch size per GPU: 5
mpd_reshapes: [2, 3, 5, 7, 11]
WmBigVGAN(
  (conv_pre): Conv1d(100, 512, kernel_size=(7,), stride=(1,), padding=(3,))
  (ups): ModuleList(
    (0): ModuleList(
      (0): ConvTranspose1d(512, 256, kernel_size=(16,), stride=(8,), padding=(4,))
    )
    (1): ModuleList(
      (0): ConvTranspose1d(256, 128, kernel_size=(16,), stride=(8,), padding=(4,))
    )
    (2): ModuleList(
      (0): ConvTranspose1d(128, 64, kernel_size=(4,), stride=(2,), padding=(1,))
    )
    (3): ModuleList(
      (0): ConvTranspose1d(64, 32, kernel_size=(4,), stride=(2,), padding=(1,))
    )
  )
  (resblocks): ModuleList(
    (0): AMPBlock1(
      (convs1): ModuleList(
        (0): Conv1d(256, 256, kernel_size=(3,), stride=(1,), padding=(1,))
        (1): Conv1d(256, 256, kernel_size=(3,), stride=(1,), padding=(3,), dilation=(3,))
        (2): Conv1d(256, 256, kernel_size=(3,), stride=(1,), padding=(5,), dilation=(5,))
      )
      (convs2): ModuleList(
        (0-2): 3 x Conv1d(256, 256, kernel_size=(3,), stride=(1,), padding=(1,))
      )
      (activations): ModuleList(
        (0-5): 6 x Activation1d(
          (act): SnakeBeta()
          (upsample): UpSample1d()
          (downsample): DownSample1d(
            (lowpass): LowPassFilter1d()
          )
        )
      )
    )
    (1): AMPBlock1(
      (convs1): ModuleList(
        (0): Conv1d(256, 256, kernel_size=(7,), stride=(1,), padding=(3,))
        (1): Conv1d(256, 256, kernel_size=(7,), stride=(1,), padding=(9,), dilation=(3,))
        (2): Conv1d(256, 256, kernel_size=(7,), stride=(1,), padding=(15,), dilation=(5,))
      )
      (convs2): ModuleList(
        (0-2): 3 x Conv1d(256, 256, kernel_size=(7,), stride=(1,), padding=(3,))
      )
      (activations): ModuleList(
        (0-5): 6 x Activation1d(
          (act): SnakeBeta()
          (upsample): UpSample1d()
          (downsample): DownSample1d(
            (lowpass): LowPassFilter1d()
          )
        )
      )
    )
    (2): AMPBlock1(
      (convs1): ModuleList(
        (0): Conv1d(256, 256, kernel_size=(11,), stride=(1,), padding=(5,))
        (1): Conv1d(256, 256, kernel_size=(11,), stride=(1,), padding=(15,), dilation=(3,))
        (2): Conv1d(256, 256, kernel_size=(11,), stride=(1,), padding=(25,), dilation=(5,))
      )
      (convs2): ModuleList(
        (0-2): 3 x Conv1d(256, 256, kernel_size=(11,), stride=(1,), padding=(5,))
      )
      (activations): ModuleList(
        (0-5): 6 x Activation1d(
          (act): SnakeBeta()
          (upsample): UpSample1d()
          (downsample): DownSample1d(
            (lowpass): LowPassFilter1d()
          )
        )
      )
    )
    (3): AMPBlock1(
      (convs1): ModuleList(
        (0): Conv1d(128, 128, kernel_size=(3,), stride=(1,), padding=(1,))
        (1): Conv1d(128, 128, kernel_size=(3,), stride=(1,), padding=(3,), dilation=(3,))
        (2): Conv1d(128, 128, kernel_size=(3,), stride=(1,), padding=(5,), dilation=(5,))
      )
      (convs2): ModuleList(
        (0-2): 3 x Conv1d(128, 128, kernel_size=(3,), stride=(1,), padding=(1,))
      )
      (activations): ModuleList(
        (0-5): 6 x Activation1d(
          (act): SnakeBeta()
          (upsample): UpSample1d()
          (downsample): DownSample1d(
            (lowpass): LowPassFilter1d()
          )
        )
      )
    )
    (4): AMPBlock1(
      (convs1): ModuleList(
        (0): Conv1d(128, 128, kernel_size=(7,), stride=(1,), padding=(3,))
        (1): Conv1d(128, 128, kernel_size=(7,), stride=(1,), padding=(9,), dilation=(3,))
        (2): Conv1d(128, 128, kernel_size=(7,), stride=(1,), padding=(15,), dilation=(5,))
      )
      (convs2): ModuleList(
        (0-2): 3 x Conv1d(128, 128, kernel_size=(7,), stride=(1,), padding=(3,))
      )
      (activations): ModuleList(
        (0-5): 6 x Activation1d(
          (act): SnakeBeta()
          (upsample): UpSample1d()
          (downsample): DownSample1d(
            (lowpass): LowPassFilter1d()
          )
        )
      )
    )
    (5): AMPBlock1(
      (convs1): ModuleList(
        (0): Conv1d(128, 128, kernel_size=(11,), stride=(1,), padding=(5,))
        (1): Conv1d(128, 128, kernel_size=(11,), stride=(1,), padding=(15,), dilation=(3,))
        (2): Conv1d(128, 128, kernel_size=(11,), stride=(1,), padding=(25,), dilation=(5,))
      )
      (convs2): ModuleList(
        (0-2): 3 x Conv1d(128, 128, kernel_size=(11,), stride=(1,), padding=(5,))
      )
      (activations): ModuleList(
        (0-5): 6 x Activation1d(
          (act): SnakeBeta()
          (upsample): UpSample1d()
          (downsample): DownSample1d(
            (lowpass): LowPassFilter1d()
          )
        )
      )
    )
    (6): AMPBlock1(
      (convs1): ModuleList(
        (0): Conv1d(64, 64, kernel_size=(3,), stride=(1,), padding=(1,))
        (1): Conv1d(64, 64, kernel_size=(3,), stride=(1,), padding=(3,), dilation=(3,))
        (2): Conv1d(64, 64, kernel_size=(3,), stride=(1,), padding=(5,), dilation=(5,))
      )
      (convs2): ModuleList(
        (0-2): 3 x Conv1d(64, 64, kernel_size=(3,), stride=(1,), padding=(1,))
      )
      (activations): ModuleList(
        (0-5): 6 x Activation1d(
          (act): SnakeBeta()
          (upsample): UpSample1d()
          (downsample): DownSample1d(
            (lowpass): LowPassFilter1d()
          )
        )
      )
    )
    (7): AMPBlock1(
      (convs1): ModuleList(
        (0): Conv1d(64, 64, kernel_size=(7,), stride=(1,), padding=(3,))
        (1): Conv1d(64, 64, kernel_size=(7,), stride=(1,), padding=(9,), dilation=(3,))
        (2): Conv1d(64, 64, kernel_size=(7,), stride=(1,), padding=(15,), dilation=(5,))
      )
      (convs2): ModuleList(
        (0-2): 3 x Conv1d(64, 64, kernel_size=(7,), stride=(1,), padding=(3,))
      )
      (activations): ModuleList(
        (0-5): 6 x Activation1d(
          (act): SnakeBeta()
          (upsample): UpSample1d()
          (downsample): DownSample1d(
            (lowpass): LowPassFilter1d()
          )
        )
      )
    )
    (8): AMPBlock1(
      (convs1): ModuleList(
        (0): Conv1d(64, 64, kernel_size=(11,), stride=(1,), padding=(5,))
        (1): Conv1d(64, 64, kernel_size=(11,), stride=(1,), padding=(15,), dilation=(3,))
        (2): Conv1d(64, 64, kernel_size=(11,), stride=(1,), padding=(25,), dilation=(5,))
      )
      (convs2): ModuleList(
        (0-2): 3 x Conv1d(64, 64, kernel_size=(11,), stride=(1,), padding=(5,))
      )
      (activations): ModuleList(
        (0-5): 6 x Activation1d(
          (act): SnakeBeta()
          (upsample): UpSample1d()
          (downsample): DownSample1d(
            (lowpass): LowPassFilter1d()
          )
        )
      )
    )
    (9): AMPBlock1(
      (convs1): ModuleList(
        (0): Conv1d(32, 32, kernel_size=(3,), stride=(1,), padding=(1,))
        (1): Conv1d(32, 32, kernel_size=(3,), stride=(1,), padding=(3,), dilation=(3,))
        (2): Conv1d(32, 32, kernel_size=(3,), stride=(1,), padding=(5,), dilation=(5,))
      )
      (convs2): ModuleList(
        (0-2): 3 x Conv1d(32, 32, kernel_size=(3,), stride=(1,), padding=(1,))
      )
      (activations): ModuleList(
        (0-5): 6 x Activation1d(
          (act): SnakeBeta()
          (upsample): UpSample1d()
          (downsample): DownSample1d(
            (lowpass): LowPassFilter1d()
          )
        )
      )
    )
    (10): AMPBlock1(
      (convs1): ModuleList(
        (0): Conv1d(32, 32, kernel_size=(7,), stride=(1,), padding=(3,))
        (1): Conv1d(32, 32, kernel_size=(7,), stride=(1,), padding=(9,), dilation=(3,))
        (2): Conv1d(32, 32, kernel_size=(7,), stride=(1,), padding=(15,), dilation=(5,))
      )
      (convs2): ModuleList(
        (0-2): 3 x Conv1d(32, 32, kernel_size=(7,), stride=(1,), padding=(3,))
      )
      (activations): ModuleList(
        (0-5): 6 x Activation1d(
          (act): SnakeBeta()
          (upsample): UpSample1d()
          (downsample): DownSample1d(
            (lowpass): LowPassFilter1d()
          )
        )
      )
    )
    (11): AMPBlock1(
      (convs1): ModuleList(
        (0): Conv1d(32, 32, kernel_size=(11,), stride=(1,), padding=(5,))
        (1): Conv1d(32, 32, kernel_size=(11,), stride=(1,), padding=(15,), dilation=(3,))
        (2): Conv1d(32, 32, kernel_size=(11,), stride=(1,), padding=(25,), dilation=(5,))
      )
      (convs2): ModuleList(
        (0-2): 3 x Conv1d(32, 32, kernel_size=(11,), stride=(1,), padding=(5,))
      )
      (activations): ModuleList(
        (0-5): 6 x Activation1d(
          (act): SnakeBeta()
          (upsample): UpSample1d()
          (downsample): DownSample1d(
            (lowpass): LowPassFilter1d()
          )
        )
      )
    )
  )
  (activation_post): Activation1d(
    (act): SnakeBeta()
    (upsample): UpSample1d()
    (downsample): DownSample1d(
      (lowpass): LowPassFilter1d()
    )
  )
  (conv_post): Conv1d(32, 1, kernel_size=(7,), stride=(1,), padding=(3,))
  (MessageEncoder): MessageEncoder(
    (conv1): Conv1d(1, 32, kernel_size=(1,), stride=(1,))
    (embedding): Embedding(2, 128)
    (conv2): Conv1d(160, 512, kernel_size=(3,), stride=(1,), padding=(1,))
  )
  (AdaptiveUpsampler): AdaptiveUpsampler()
  (ConditionalNorms): ModuleList(
    (0): ConditionalNorm(
      (norm): InstanceNorm1d(256, eps=1e-05, momentum=0.1, affine=False, track_running_stats=False)
      (gamma_net): Linear(in_features=512, out_features=256, bias=True)
      (beta_net): Linear(in_features=512, out_features=256, bias=True)
    )
    (1): ConditionalNorm(
      (norm): InstanceNorm1d(128, eps=1e-05, momentum=0.1, affine=False, track_running_stats=False)
      (gamma_net): Linear(in_features=512, out_features=128, bias=True)
      (beta_net): Linear(in_features=512, out_features=128, bias=True)
    )
    (2): ConditionalNorm(
      (norm): InstanceNorm1d(64, eps=1e-05, momentum=0.1, affine=False, track_running_stats=False)
      (gamma_net): Linear(in_features=512, out_features=64, bias=True)
      (beta_net): Linear(in_features=512, out_features=64, bias=True)
    )
    (3): ConditionalNorm(
      (norm): InstanceNorm1d(32, eps=1e-05, momentum=0.1, affine=False, track_running_stats=False)
      (gamma_net): Linear(in_features=512, out_features=32, bias=True)
      (beta_net): Linear(in_features=512, out_features=32, bias=True)
    )
  )
)mpd_reshapes: [2, 3, 5, 7, 11]
first training file: /home/cw/ssd/oyx/LibriTTS/train-clean-100/103/1241/103_1241_000004_000002.wav
first validation file: /home/cw/ssd/oyx/LibriTTS/train-clean-100/103/1241/103_1241_000000_000001.wav
first unseen 0th validation fileset: /home/cw/ssd/oyx/LibriTTS/dev-clean/1272/128104/1272_128104_000001_000000.wav
…
first validation file: /home/cw/ssd/oyx/LibriTTS/train-clean-100/103/1241/103_1241_000000_000001.wav
first unseen 0th validation fileset: /home/cw/ssd/oyx/LibriTTS/dev-clean/1272/128104/1272_128104_000001_000000.wav
first unseen 1th validation fileset: /home/cw/ssd/oyx/LibriTTS/dev-other/116/288045/116_288045_000003_000000.wav
[INFO] checking dataset integrity...
  0%|          | 0/354570 [00:00<?, ?it/s]  9%|▊         | 30610/354570 [00:00<00:01, 305977.73it/s]  9%|▉         | 31326/354570 [00:00<00:01, 313197.57it/s]
MultiPeriodDiscriminator(
  (discriminators): ModuleList(
    (0-4): 5 x DiscriminatorP(
      (convs): ModuleList(
        (0): Conv2d(1, 32, kernel_size=(5, 1), stride=(3, 1), padding=(2, 0))
        (1): Conv2d(32, 128, kernel_size=(5, 1), stride=(3, 1), padding=(2, 0))
        (2): Conv2d(128, 512, kernel_size=(5, 1), stride=(3, 1), padding=(2, 0))
        (3): Conv2d(512, 1024, kernel_size=(5, 1), stride=(3, 1), padding=(2, 0))
        (4): Conv2d(1024, 1024, kernel_size=(5, 1), stride=(1, 1), padding=(2, 0))
      )
      (conv_post): Conv2d(1024, 1, kernel_size=(3, 1), stride=(1, 1), padding=(1, 0))
    )
  )
)
MultiResolutionDiscriminator(
  (discriminators): ModuleList(
    (0-2): 3 x DiscriminatorR(
      (convs): ModuleList(
        (0): Conv2d(1, 32, kernel_size=(3, 9), stride=(1, 1), padding=(1, 4))
        (1-3): 3 x Conv2d(32, 32, kernel_size=(3, 9), stride=(1, 2), padding=(1, 4))
        (4): Conv2d(32, 32, kernel_size=(3, 3), stride=(1, 1), padding=(1, 1))
      )
      (conv_post): Conv2d(32, 1, kernel_size=(3, 3), stride=(1, 1), padding=(1, 1))
    )
  )
)
AudioSealDetector(
  (detector): Sequential(
    (0): Conv1d(1, 32, kernel_size=(1,), stride=(1,))
    (1): SEANetEncoderKeepDimension(
      (model): Sequential(
        (0): StreamableConv1d(
          (conv): NormConv1d(
            (conv): Conv1d(32, 32, kernel_size=(7,), stride=(1,))
            (norm): Identity()
          )
        )
        (1): SEANetResnetBlock(
          (block): Sequential(
            (0): ELU(alpha=1.0)
            (1): StreamableConv1d(
              (conv): NormConv1d(
                (conv): Conv1d(32, 16, kernel_size=(3,), stride=(1,))
                (norm): Identity()
              )
            )
            (2): ELU(alpha=1.0)
            (3): StreamableConv1d(
              (conv): NormConv1d(
                (conv): Conv1d(16, 32, kernel_size=(1,), stride=(1,))
                (norm): Identity()
              )
            )
          )
          (shortcut): Identity()
        )
        (2): ELU(alpha=1.0)
        (3): StreamableConv1d(
          (conv): NormConv1d(
            (conv): Conv1d(32, 64, kernel_size=(4,), stride=(2,))
            (norm): Identity()
          )
        )
        (4): SEANetResnetBlock(
          (block): Sequential(
            (0): ELU(alpha=1.0)
            (1): StreamableConv1d(
              (conv): NormConv1d(
                (conv): Conv1d(64, 32, kernel_size=(3,), stride=(1,))
                (norm): Identity()
              )
            )
            (2): ELU(alpha=1.0)
            (3): StreamableConv1d(
              (conv): NormConv1d(
                (conv): Conv1d(32, 64, kernel_size=(1,), stride=(1,))
                (norm): Identity()
              )
            )
          )
          (shortcut): Identity()
        )
        (5): ELU(alpha=1.0)
        (6): StreamableConv1d(
          (conv): NormConv1d(
            (conv): Conv1d(64, 128, kernel_size=(8,), stride=(4,))
            (norm): Identity()
          )
        )
        (7): SEANetResnetBlock(
          (block): Sequential(
            (0): ELU(alpha=1.0)
            (1): StreamableConv1d(
              (conv): NormConv1d(
                (conv): Conv1d(128, 64, kernel_size=(3,), stride=(1,))
                (norm): Identity()
              )
            )
            (2): ELU(alpha=1.0)
            (3): StreamableConv1d(
              (conv): NormConv1d(
                (conv): Conv1d(64, 128, kernel_size=(1,), stride=(1,))
                (norm): Identity()
              )
            )
          )
          (shortcut): Identity()
        )
        (8): ELU(alpha=1.0)
        (9): StreamableConv1d(
          (conv): NormConv1d(
            (conv): Conv1d(128, 256, kernel_size=(10,), stride=(5,))
            (norm): Identity()
          )
        )
        (10): SEANetResnetBlock(
          (block): Sequential(
            (0): ELU(alpha=1.0)
            (1): StreamableConv1d(
              (conv): NormConv1d(
                (conv): Conv1d(256, 128, kernel_size=(3,), stride=(1,))
                (norm): Identity()
              )
            )
            (2): ELU(alpha=1.0)
            (3): StreamableConv1d(
              (conv): NormConv1d(
                (conv): Conv1d(128, 256, kernel_size=(1,), stride=(1,))
                (norm): Identity()
              )
            )
          )
          (shortcut): Identity()
        )
        (11): ELU(alpha=1.0)
        (12): StreamableConv1d(
          (conv): NormConv1d(
            (conv): Conv1d(256, 512, kernel_size=(16,), stride=(8,))
            (norm): Identity()
          )
        )
        (13): StreamableLSTM(
          (lstm): LSTM(512, 512, num_layers=2)
        )
        (14): ELU(alpha=1.0)
        (15): StreamableConv1d(
          (conv): NormConv1d(
            (conv): Conv1d(512, 128, kernel_size=(7,), stride=(1,))
            (norm): Identity()
          )
        )
      )
      (reverse_convolution): ConvTranspose1d(128, 32, kernel_size=(320,), stride=(320,))
    )
    (2): Conv1d(32, 18, kernel_size=(1,), stride=(1,))
  )
)
Generator params: 14764226
Discriminator mpd params: 41105770
Discriminator mrd params: 280902
Discriminator wmd params: 8656146
Checkpoints directory: exp/libritts_WmBigVGAN
first training file: /home/cw/ssd/oyx/LibriTTS/train-clean-100/103/1241/103_1241_000004_000002.wav
first validation file: /home/cw/ssd/oyx/LibriTTS/train-clean-100/103/1241/103_1241_000000_000001.wav
…
